tutorials/snapshot.pt (torch, 1195 bytes, 1 tensors)

module.weight f4 [1, 20]
-0.07076061 -0.1058538 0.00016558712 -0.18839456 0.014004426 -0.09415171 0.0040471284 -0.14219956
-0.16131699 -0.2187118 0.18911526 -0.07206905 0.1898653 0.021860218 -0.06988882 0.12524551
-0.09743162 -0.21234226 0.091414295 0.15324101
00000000: f0ea 90bd e1c9 d8bd 74a1 2d39 81ea 40be
00000010: d272 653c 9dd2 c0bd c69d 843b c39c 11be
00000020: 4830 25be fcf5 5fbe 6ea7 413e f098 93bd
00000030: 0d6c 423e 3314 b33c df21 8fbd 5c40 003e
00000040: 3b8a c7bd 4070 59be 6b37 bb3d 36eb 1c3e
